results/3435_NT_T1_AELR-2-100_lr1em4_e500_b128_hvg.pt (torch, 166125 bytes, 8 tensors)

weight f4 [100, 100]
00000000: a3eb 9c3d f0e3 ca3d a74c 84bd a721 ac3d
00000010: 71b2 15bd 38ad 4fbc 7b73 a7bc caf1 b13c
00000020: 061f b63d 3d44 d1bb 4f50 81bd b171 58bd
00000030: 03c4 30bd a364 563d 16ea df3d 0cd6 e2bd
00000040: 3de6 a8bd f125 2c3e d2ce d23d aab9 98bd
00000050: 89bf 77bd f8d4 d33d ebda 47bd 50bf 94bd
00000060: 2899 1dbe 8ac0 6e3c 794d b8bd 84f5 df3c
00000070: 5447 983d c097 d6bd 5416 003d 2247 e73d
00000080: d269 643d 2018 a43c 4642 94bd 8c20 203e
00000090: f5ae 2f3e 37b9 353e 314e 123e 0608 193d
000000a0: d9ee 193d bda1 20bd c0c3 db3d 8909 c93d
000000b0: 10de 13bd 3669 62bc 1f99 25bd d75b 9fbc
000000c0: 4fe8 7ebc 78bb fbbd 83c2 e7bc 2da3 b8bd
000000d0: 2886 cbbd a481 f33d 0e74 983d a4f1 133e
000000e0: 1c8f f2bd f64e 733d 7cb2 05bd 2db7 f4bd
000000f0: cb7a ac3c 9cc8 1bbd d246 b03d 3144 663d
00000100: c8b7 bf3d 5735 2f3d 72e7 f23d 856e 99bd
00000110: a9b5 1c3d 780a 1cbd f953 0bbd 9ee6 06be
00000120: 3cff 073e 9a35 eabd 4ba8 aa3b 993e 3ebc
00000130: 4b91 aebd d356 a53c 95c8 8dbc 0fae e1bd
00000140: 0a3c e8bc 2ab3 ba3d 1afa 0bbe a41b d73d
00000150: d0cd bebc 8527 0d3d bf01 023e 170f ecbd
00000160: b355 133e bded 19bd ee82 8a3d ed1e 043e
00000170: 8e47 9a3d d472 6fbd af65 2a3d 3a8a a9bc
00000180: 7b40 563d a10f 9c3c 8cbd 80bd 2b84 0e3d
00000190: 5b44 e53b 84b6 2ebd 39e8 82bd 0bad 48bd
000001a0: ea7b cf3c d36e 193c fc8a 36bd 63c1 cd3d
000001b0: c579 203d a7e5 7cbc 6c23 913c 59bc 313d
000001c0: a41d 963d c78a c8bd 951d a1bd ddc7 983d
000001d0: 5470 e53d 8562 8d3e f804 f1bb 4218 a5bd
000001e0: 5e41 83bd 14a5 a7bd f9d6 0b3e 1e96 b8bc
000001f0: c2c2 7abd fe4d 293e 8afa 163e 6c86 d73d
00000200: d16e 12bc ac8b 78bb 7598 09bd 4d3e a4bd
00000210: 48c2 103e b9b0 0bbe 62cf 83bd 159b 54bc
00000220: 19cf 553e 17b1 873c 3572 af3c 0a8a 89bd
00000230: 4dff 86bd 55dd 2fbe 2763 acbc 669a 09bc
00000240: 8b5a 383b 52a5 c7bd 6e9c d1bb 7a8f 0e3e
00000250: 1829 36bd 09fc f23d 6258 2ebe 5995 d43d
00000260: 94db e13d 47f4 493e 412b 813e 15f1 473c
00000270: ee34 3f3e 749b 7c3d 5cdf 533d 8f1b 19be
00000280: abea 3fbc bb7e 1f3e 06b3 263e 70a7 27be
00000290: fc83 39bc 2d6b 2abd 97fd 3cbe 284d d13d
000002a0: aaf9 e63d 46c0 f7bc fafa a73c c7dd 8abd
000002b0: 1c70 ecbd 7536 05be 3a42 86bd c2a8 423e
000002c0: 3c52 493e 91c2 3e3e 0f58 4c3d 4b6d 7bbd
000002d0: 0f77 e4bb 46eb 453d a3cc 4dbe ff66 55be
000002e0: eaee 0e3d af14 e0bc 45fe 413e 4c78 563d
000002f0: 40a2 d93d 96e5 ad3d 3bea a9bd 4752 503e
00000300: 3de8 783e 296b dbbd fe02 c13d 599b 5e3c
00000310: bbd7 f43d 9716 013e 9208 ecbd df18 7fbd
00000320: 8cc4 183c 1d74 e8bd 4774 f53c e71a 1cbd
00000330: e709 ac3c 05a4 bdbd 4aa0 dabd 2e90 27bd
00000340: 2377 a23c 9e8a 02be 226d 8a3c 6dad 213d
00000350: 4a4e 5cbc 19af ad3d 528f b3bd 8b35 ebbd
00000360: 9ec9 9d3d 3263 aebd 9262 a03c 555b f5bc
00000370: 02ea 353c e85e 06be bdef e93d 8872 c0bd
00000380: e7b0 2d3d 6137 b8bd a8c9 71bd 9617 52bd
00000390: f41a c53d 5c90 e8bd 8f14 033d 5db4 6abc
000003a0: 01fe 303e b530 93bd 3de0 a3bd d001 863d
000003b0: 6875 19be 1d9c 863d 7889 f4bd 0406 1ebd
000003c0: 4290 e9bb 893c 803c 57b6 80ba d341 1dbd
000003d0: 42e3 b8bc e0bc d5bd 6888 c23d 3810 b4bd
000003e0: b3a2 32bd 12e6 f43c 6408 e0bd 5794 333e
000003f0: 2a05 9ebb b1d4 91bd f7e1 243d ca78 163d
0.07662132 0.09906757 -0.06459933 0.08404856 -0.036547128 -0.012675576 -0.020440808 0.02172174
0.08892636 -0.0063863085 -0.06314146 -0.0528428 -0.04315568 0.05234207 0.1093332 -0.110759825
-0.082470395 0.16811348 0.10293354 -0.074572876 -0.060485397 0.10343355 -0.04879276 -0.072630525
-0.15390456 0.014572272 -0.08999152 0.02733875 0.0743548 -0.10478163 0.031271294 0.112928644
0.05576498 0.020031035 -0.07239203 0.15637416 0.17156585 0.17746435 0.1428764 0.037361167
0.0375813 -0.039216746 0.10730696 0.09816272 -0.036100447 -0.01381903 -0.04042923 -0.019452972
-0.015558316 -0.12291616 -0.028290993 -0.09015498 -0.09937698 0.11889961 0.07444011 0.14447647
-0.11843702 0.059401475 -0.03264092 -0.119490005 0.021054646 -0.038033113 0.08607258 0.056217376
0.09361225 0.04277548 0.11860551 -0.07491783 0.038259182 -0.03809592 -0.03401563 -0.13173911
0.13280958 -0.11436005 0.0052080504 -0.011611604 -0.08523806 0.020183003 -0.017307559 -0.11019527
-0.028348941 0.09116204 -0.13669625 0.10503319 -0.023291498 0.034461517 0.12695979 -0.11526316
0.1438816 -0.03758024 0.06763254 0.12902422 0.07533179 -0.058459118 0.04160088 -0.020695794
0.052307587 0.019050421 -0.06286153 0.034794014 0.006996674 -0.04265453 -0.06391949 -0.04899315
0.025327642 0.009364801 -0.04456614 0.10046651 0.03917863 -0.015435613 0.017717086 0.043392513
0.07329872 -0.09792095 -0.078669704 0.07459996 0.112030655 0.27614227 -0.0073553286 -0.080612674
-0.06408952 -0.08185783 0.13656224 -0.022532519 -0.06122089 0.16533658 0.1474401 0.10523686
-0.0089375535 -0.0037925048 -0.03359266 -0.080196954 0.14136612 -0.13641633 -0.064360395 -0.012976428
0.20879783 0.016563935 0.021416763 -0.06715782 -0.065916635 -0.17174275 -0.021043373 -0.008398628
0.002813014 -0.09748329 -0.0063968217 0.1392192 -0.044472784 0.11864478 -0.17025903 0.10380048
0.11028209 0.1972209 0.25228313 0.0122034745 0.18672535 0.06167169 0.051726684 -0.14951919
-0.011713664 0.15575688 0.1627923 -0.16372466 -0.011322971 -0.041606117 -0.18456112 0.102197945
0.112780884 -0.03024305 0.020505417 -0.06780582 -0.11544821 -0.13009055 -0.065556005 0.19009688
0.19660276 0.18628909 0.049888667 -0.061383527 -0.0069722007 0.048320077 -0.20097594 -0.20840071
0.034895815 -0.027353613 0.18944652 0.052360818 0.1062665 0.08491056 -0.08296629 0.20343886
0.24307342 -0.107137986 0.09424399 0.013586842 0.1195521 0.12606274 -0.11525072 -0.06227958
0.009324204 -0.11350272 0.029962672 -0.038111594 0.021000816 -0.092598 -0.10675104 -0.040908985
0.0198322 -0.12748191 0.016897742 0.039472032 -0.0134464 0.08480663 -0.087675706 -0.11484822
0.07704471 -0.08515014 0.019578252 -0.029950777 0.011103155 -0.13122141 0.114226796 -0.09396845
0.042405035 -0.08994938 -0.059030205 -0.051292025 0.096242815 -0.11355659 0.032002028 -0.0143252285
0.17284395 -0.071870245 -0.080017544 0.065433145 -0.14986193 0.06572745 -0.119402826 -0.038579956
-0.0071277926 0.015653865 -0.0009819967 -0.038392853 -0.022569302 -0.10436416 0.09498674 -0.08792156
-0.043612193 0.029894862 -0.109391004 0.17537056 -0.004822393 -0.07120646 0.04025456 0.036736287

bias f4 [100]
00000000: ecee f23d eb59 85bc 4167 8b3d 3226 883d
00000010: ef69 603d ea7c 57bd 63a1 9ebc 2aec d33c
00000020: 0ae2 4abd 7baf ec3c 9db2 983d 6440 453d
00000030: b2b7 b6bd 6788 9a3c 3e33 09bd e64c 913d
00000040: d0c7 9fbd bf34 ab3d 6d77 b83c e3c5 b23d
00000050: 5cd7 573d 928e 583d f887 4c3d 374a 0bbd
00000060: b78f 23bd 17a3 52bc cd76 1e3d 8bee ba3d
00000070: 164d e13d 5bca c8bc a97e 19bd 651b 92bd
00000080: 2a56 ab3d 6c00 c9bb 00f4 e43d d6be 073c
00000090: e1d3 b0bd a851 383c 63ce 383d 9a72 2f3d
000000a0: ebef dcbb faaf 143d 664e 863d 89ac d2bd
000000b0: 1989 933d 9266 c43d cc76 a43d b7f4 a9bd
000000c0: 78cf 7b3d bbd2 1d3c 9801 a23d 66ad e5bc
000000d0: 6bfe 5d3d b37c d43d 1eb3 60bd 779b d23d
000000e0: f969 c5bc 5dff e9bc 093e cc3d 1433 8fbd
000000f0: bd22 5b3d 82f8 c63d e988 1abd 0c08 94bd
00000100: b1dd 60bd 88f8 b6bd 8bcc b13d 2673 a83d
00000110: c0cd 6cbd 992d b53d ecaa 03bd fb05 423d
00000120: 92c7 22bd d50d c13d 93d3 83bd f9db d23d
00000130: 7aa1 743c 88f2 97bd 5e42 293c ebaa ed3c
00000140: 452b 923d b6c7 353d 7fa5 b4bc 70de 503d
00000150: b6cc 1fbd 272a c73d eb8d f1bd 4a86 013e
00000160: f5c5 873d d39e d63d 13a8 e3bd 87d9 ba3d
00000170: 00bc 68bd f272 5b3d b358 b1bd 6348 b03d
00000180: b286 aa3c ba88 3bbb 65fa 923d 71ab e1bd
0.11861977 -0.016278228 0.068068035 0.0664791 0.054788526 -0.05260936 -0.019364065 0.025869448
-0.049531974 0.02889227 0.07455943 0.04815711 -0.08921756 0.01886387 -0.033496134 0.07094745
-0.07801783 0.0835967 0.022517884 0.0872915 0.052695617 0.05287034 0.049934357 -0.034006324
-0.03993198 -0.012856266 0.038687516 0.0912753 0.11001031 -0.024510553 -0.03747431 -0.07134131
0.08366044 -0.0061340835 0.11179352 0.008285245 -0.08634163 0.011249937 0.0451187 0.042833902
-0.0067424676 0.036300637 0.06557922 -0.10286815 0.07203884 0.09589876 0.08030471 -0.08298629
0.061477154 0.009632762 0.0791046 -0.028036784 0.05419771 0.10375347 -0.05485832 0.10283559
-0.024098383 -0.02856415 0.0997277 -0.06992164 0.053499926 0.09715368 -0.037728224 -0.07228097
-0.05489892 -0.08934122 0.086815916 0.08225088 -0.057813406 0.08846588 -0.032145426 0.047368985
-0.039741106 0.094264664 -0.06436839 0.10295863 0.014931077 -0.07419306 0.010330765 0.029012164
0.07137159 0.044379912 -0.022051571 0.050993383 -0.039013587 0.09724837 -0.11794647 0.12648883
0.06629554 0.10479512 -0.11116042 0.09123521 -0.056819916 0.053576417 -0.08659496 0.08607557
0.02081618 -0.002861543 0.07176665 -0.11019028

weight f4 [100, 100]
00000000: b174 653c 4853 84bc 7651 aebc 3acc a7b9
00000010: 3cc3 183d b7bd f13d 779a 173d 19d0 a23d
00000020: 7d28 0b3e a51d 073c 6dc1 94bc 7d66 e23d
00000030: 420c 90bd 26bd 9cbe a30e c9ba cacc 963b
00000040: 14a8 9a3d be6c b43d b1ce a0bd 87a3 263d
00000050: 3116 f6bd 0db4 69bd 3f93 52bd 4847 b5bd
00000060: dc92 64bc fa1c 83bc 8485 8ebd 01c6 ffbd
00000070: faa1 0338 93c6 66bd 114c 67bd 72c1 36bd
00000080: c1f1 84bd 814d 69bc 27fa dabd bfec 4fbc
00000090: 42aa 2bbd 8815 a8bd 7cfd 333e 2905 87bd
000000a0: e858 113b 7311 c93c b076 403e 5d2c cabd
000000b0: 1350 553c 43c7 41bd aca6 eebc 1703 75bd
000000c0: 9e81 2f3e 1fee 4b3b e117 1ebd b80c c1bd
000000d0: f10f 023e b365 58bd c8cf 4d3d 7b96 593d
000000e0: 3d4c 90bd 42a8 903c d2d8 183e 5c8a e0bd
000000f0: dc23 1cbd f533 4f3e 2318 3c3d 7275 92bd
00000100: 0abb 9ebd c37e 573c 292c a33d bcb2 a7bd
00000110: d0b9 ac3c e736 363e 30e1 453d 85ef 923d
00000120: 88f0 ce3d 73c1 5e3c 68a0 0b3d c541 e63d
00000130: aca1 cb3c 714f a6bd d042 14bc c5d2 333e
00000140: df5c bc3d 85bc ee3d 1d64 30bc abe2 5e3d
00000150: e36d 463e 8b0e ccbd b363 b4bc ba16 f83d
00000160: bbaf a43c a635 b6bd 0b77 4e3d 35a6 b1bc
00000170: 9120 78bd b35c 21bc 8703 2abd 39dd 623d
00000180: 9501 87bd 5627 85bd b64d 05be 6e93 1cbd
00000190: 3bc7 d33c 9e10 95bd 8370 c8bd 1655 8e3d
000001a0: 99d9 1abd a6f1 b5bc b0b3 8abc 63da 333c
000001b0: d7e0 c8bc f4e0 d73d 1523 20bd 3d64 11bd
000001c0: ffff babd f12b ce3c f6c9 063d bb9b f3bc
000001d0: 0647 a83d a368 1a3d eccd 0dbd 02f2 053d
000001e0: 709b 193e b645 103d 5f3a 613c 8044 6cbd
000001f0: ab5e 86bd fa8c 6dbd 772f e73c f022 a93d
00000200: 09f4 e5bb f053 db3c d718 c63d a0e2 35bc
00000210: 766d e83d 1c04 02be 14fb de3c 82cd d03d
00000220: 3b68 b93d 709e b53d 3881 2b3d 48d1 aebc
00000230: 74ea 0cbd c318 23be db2d c33d 0689 003c
00000240: 867e d33d def6 dfbd e1ab 993c c03b c8bd
00000250: d401 9d3d 50f7 df3c 8d20 b43d 3659 733d
00000260: 1478 e9ba e40e 8d3d 4380 b9bd c682 873a
00000270: 0900 da3d 0c13 bfbd 9470 633c df90 adbd
00000280: d6b7 e9bd b58d 5abb 0e03 83bd f416 0bbe
00000290: 51a3 3bbd 9774 29be e5e9 cc3d 43df aebd
000002a0: a57a c23d b717 fbbd 25fd 63bd dd18 343d
000002b0: d6a3 e4ba 4fbe fb3d 28fa a3bd 17dd aabc
000002c0: cf35 3a3c de0f c43d dacc 1fbe 69a3 5fbd
000002d0: 6cfa f13c 7c5c 7dbd 7811 f53c 5320 cabb
000002e0: ad42 8f3d c833 8a3d 8b57 88bd 1ea5 f23c
000002f0: 309f 89bd 813d 15bd 1f3c 21bd e889 bdb9
00000300: 6113 a33d 4011 223d f48b cabc 256e 643d
00000310: 38ff 75bc 13c0 b23d 66df 50bc c8e5 39bd
00000320: 6ab8 bebd 8b08 dabc 3a74 18be 3068 edbd
00000330: 2c5a bd3d e7e5 573e 4047 b8bd c0d0 7bbd
00000340: cd83 b2bd 9361 03be 1174 113e e309 41bd
00000350: 3ea0 3d3d 1964 af3d ff6f 33be b6eb 6fbd
00000360: aeb7 23bc 1aed 113e d387 9f3d f705 2f3e
00000370: 8596 523c 3eb0 4f3c 8e22 4a3b a12a 8fbd
00000380: 0bff 88bd 93f8 a63c 0c6a 513d 8883 dabd
00000390: d220 1cbd 4346 30bd b3f5 543e 1913 ccbd
000003a0: 5688 15bd 7555 babb a0dc 303e 391f 233e
000003b0: 93f8 153c 53fc 163e 7ba0 03be 4de1 aa3d
000003c0: 9dbc 98bd 7427 91bc 3a60 323e a56b 41bd
000003d0: ec06 00bc 7d8f 533d 1310 bcbd 3ae2 0dbe
000003e0: 816d a1bd 3f5e 683e c122 7139 ac83 da3d
000003f0: 090e 443d c1ef 0cbe 5e2c 823c f164 803e
0.014004872 -0.016152993 -0.021279078 -0.00032004883 0.037295565 0.11803763 0.037012544 0.07949848
0.13589664 0.008246814 -0.018158639 0.11054704 -0.07033588 -0.3061306 -0.0015339445 0.0046020495
0.075515896 0.088098034 -0.07851923 0.040683296 -0.120159514 -0.057056475 -0.051409956 -0.088514864
-0.01395103 -0.016005028 -0.0695906 -0.12488938 3.1383686e-05 -0.05634172 -0.056469027 -0.044618078
-0.064914234 -0.01423967 -0.10692244 -0.012690722 -0.041910417 -0.08207232 0.17577165 -0.06592781
0.0022178236 0.024544453 0.18795276 -0.09871743 0.013019579 -0.04730917 -0.02913221 -0.0598174
0.17139289 0.0031117273 -0.03859699 -0.09426254 0.12701394 -0.052831363 0.050246984 0.053122025
-0.07045791 0.017658357 0.1492646 -0.1096389 -0.038120136 0.20234664 0.045921456 -0.07151307
-0.077505186 0.013152781 0.07967407 -0.08188388 0.021084696 0.17794381 0.04831046 0.07174591
0.101044714 0.013595927 0.034088522 0.11243013 0.024857365 -0.08120621 -0.0090491325 0.17560871
0.09197401 0.11657051 -0.010766056 0.054415386 0.19377856 -0.09963711 -0.022020197 0.1211371
0.020103326 -0.088969514 0.050406497 -0.021685699 -0.060577933 -0.009848761 -0.04150727 0.055386756
-0.065920986 -0.06501643 -0.13017926 -0.038226537 0.025851836 -0.0727856 -0.09787085 0.069498226
-0.037805174 -0.022209954 -0.016931385 0.01097736 -0.024521274 0.10540953 -0.039095957 -0.035495985
-0.09130859 0.025167437 0.03290745 -0.029737344 0.08216672 0.037697446 -0.03462021 0.0327015
0.15000701 0.03522273 0.013746827 -0.057682514 -0.06561025 -0.057995774 0.028220875 0.08258617
-0.0070176166 0.026773423 0.096727066 -0.011101395 0.11349003 -0.1269688 0.027219333 0.101954475
0.090530835 0.0886811 0.04187128 -0.021340027 -0.03440328 -0.15927415 0.095302306 0.007845169
0.10326867 -0.10935758 0.018758716 -0.097770214 0.07666364 0.027339607 0.08795271 0.05941125
-0.0017812275 0.06887606 -0.09057667 0.0010338656 0.10644538 -0.09329805 0.013881821 -0.084748976
-0.11412017 -0.0033348624 -0.06397067 -0.13582975 -0.045810048 -0.16548382 0.10005549 -0.085386775
0.09496049 -0.122603826 -0.05566134 0.043969024 -0.0017443846 0.12292158 -0.08006698 -0.020857377
0.011365368 0.09573339 -0.15605488 -0.0545992 0.029538356 -0.061855778 0.029915556 -0.006168404
0.06995139 0.06748158 -0.066573225 0.02961975 -0.06719816 -0.036435608 -0.039363977 -0.00036151637
0.079626806 0.039567232 -0.024724938 0.055769105 -0.015014462 0.087280415 -0.012748575 -0.045385152
-0.09312518 -0.026615402 -0.14888087 -0.11592138 0.092457145 0.21083795 -0.08997965 -0.061478376
-0.08716545 -0.1283019 0.14204432 -0.04712857 0.046295397 0.08564014 -0.17523192 -0.0585744
-0.009992523 0.14250603 0.07789578 0.17092119 0.012853269 0.012676297 0.003084335 -0.06990553
-0.066892706 0.020382201 0.051126525 -0.10669619 -0.038117237 -0.043035757 0.20796852 -0.0996458
-0.036506973 -0.005686457 0.17271662 0.15929879 0.009153503 0.14744692 -0.12854187 0.08343754
-0.0745785 -0.017719008 0.1741952 -0.0472218 -0.00781415 0.051650513 -0.091827534 -0.1385583
-0.07882214 0.22692202 0.00022996498 0.10669646 0.047864947 -0.13763334 0.015890297 0.25077012

bias f4 [100]
00000000: 66d3 c63d de51 99bd 33fc b6bc fe22 6a3d
00000010: d11e fc3c db16 6f3d fbb9 bd3d d0df aa3d
00000020: 5477 b7bd 4b38 93bb 5192 98bc 169e b53d
00000030: af8f bc3d b8df 363d a36d f7bd 74bc 823c
00000040: b3cc 91bd c9bf 783d 6dc6 13bd ebe4 633d
00000050: 769c 233d 09f5 da3d 4b38 99bd 8b40 a6bd
00000060: 4992 bd3d 37f6 9e3d 7f08 e53d e5a3 d13d
00000070: af0d 90bd 3cfd 57bd 71fd 443d bb9e 52bd
00000080: 31ec 4dbd b414 43bd 4fd5 14bd 9b25 e9bb
00000090: dcb2 a7bd 7e19 ba3d 6853 43bd 3134 7b3d
000000a0: 98c9 bb3b ce8b 38bb 6ad8 1d3a 265e 963d
000000b0: c125 0bbd 5033 1e3d 3b6c af3d 5302 4a3d
000000c0: aed1 ec3d b7f2 e23d 0da5 8e3c 7577 9a3d
000000d0: 4f7e 0cbd 8046 da3d 07f6 0ebc e9cf 253d
000000e0: f820 6d3d bcd2 67bd a4ef 803d 133a 9dbd
000000f0: e241 8fbd e5a9 a33c 055e 3fbd 2163 993d
00000100: 1f33 19bc 3c6c 923d 7049 8a3d 6998 863b
00000110: dabd 6c3d 2415 2b3d d0df c03d 7ce1 153d
00000120: 74cc 93bd 56a5 693d 4113 cebd 9b96 e4bd
00000130: c6cf 2ebc 922e 28bc a1f0 8ebd 6233 09bd
00000140: 2c98 33bc 6a66 3b3c be8a 7d3d d88c a3bc
00000150: a524 babd b5fe 563d 33cc a8bd 8574 013e
00000160: 5c60 b6bd 52b3 9dbc 7d46 cc3d 5c60 3a3b
00000170: 8419 5ebd 186e 803d 7b1b 8abd 062b 9dbc
00000180: d899 0d3d cfd7 f1ba 196b 5abd e99d 553b
0.0970829 -0.07486318 -0.022337055 0.057162277 0.030776413 0.058371406 0.092639886 0.0834347
-0.08958307 -0.0044927946 -0.018624457 0.08868043 0.09207093 0.04464695 -0.120814584 0.015959002
-0.071191214 0.060729776 -0.036077905 0.055638235 0.039944135 0.10691268 -0.0748144 -0.08117779
0.09256417 0.077618055 0.11183261 0.102363385 -0.0703386 -0.052731737 0.048093263 -0.05142091
-0.050274078 -0.047627166 -0.03633624 -0.0071150786 -0.081884116 0.090868935 -0.047686964 0.06132907
0.005730819 -0.0028159502 0.0006021323 0.07342176 -0.03397155 0.038623154 0.08565565 0.049318623
0.11563431 0.110814504 0.017412687 0.07542316 -0.034300145 0.10657978 -0.00872565 0.04048148
0.05789277 -0.056597456 0.06295708 -0.076770924 -0.06994988 0.019978473 -0.046720523 0.074896105
-0.009350567 0.0714955 0.06752288 0.004107524 0.057798244 0.04176821 0.09417689 0.03659199
-0.07216731 0.057042442 -0.10062266 -0.11161538 -0.010669654 -0.0102650095 -0.0697949 -0.033496268
-0.010961574 0.011437992 0.061899893 -0.01996462 -0.09089021 0.052489 -0.08242073 0.12642105
-0.08905098 -0.019250546 0.09974382 0.0028438782 -0.054223552 0.06270999 -0.06743523 -0.019185554
0.034570545 -0.0018451157 -0.053324793 0.0032595342

weight f4 [100, 100]
00000000: ffbf 18bd d9a6 83bd b4f9 823d 2924 2dbd
00000010: fc00 963d b722 163d 5afb c63d 2060 e33d
00000020: 26ac 5ebc d74e cdbc 3368 08bc 133f 1cbd
00000030: 9df2 5dbd 5f61 6c3d 378a 983d 14a7 703d
00000040: d1db c83d f556 c03d 39e1 20bc 727b 423d
00000050: 413e 7f3d 6539 003e 3471 53bd 47cf 9a3b
00000060: 15c4 12bd 18c2 8b3b 99d2 35be e980 df3d
00000070: 0438 41bd c2ef 85bd d5d2 d93d 31d3 793d
00000080: dffa 5a3d a457 ec3d 0098 203d 13a1 13bd
00000090: ae79 94bc cc59 b2bc 3b73 923d 6ef1 463d
000000a0: 941d 7bbd e39f 183e d758 22bc 9995 3fbd
000000b0: b0ca 88bd 2dab 5fbc 0ea5 f0ba 0b64 b9bd
000000c0: cb6f 81bd 29bd 9bbd caf9 11be 001d b6bd
000000d0: af6d 943d 23f1 aebc b980 b5bc 697c 6d3c
000000e0: 11bf 4c3e 54e9 e53d 21a8 863d 6f8c 87bd
000000f0: c1a8 9dbd 3609 ae3c 28ec febc 17ec 413e
00000100: 8fd0 bc3b b4d8 563c 9c95 c5bd 0aad fb3b
00000110: 17b9 02bd ef3b 4a3b ef81 d23c 6d24 183c
00000120: 1e97 df3d 96d0 af3d ba0c 643d 1ae7 9cbb
00000130: 6a48 743d 43e3 b53d 6939 a73b 72d9 e43d
00000140: 4dcc a6bd cb1f 81bd c61c 2abe 6322 cc3b
00000150: 10cb c03d ead4 85bd f5af 243c a755 7b3d
00000160: f64c 3a3d 4555 043e 61b7 e1bd 77e7 df3d
00000170: ef66 4f3b 6ff8 e83d e35a ba3b 957f c03d
00000180: 0e07 013c d409 ecbd b193 2c3e be94 3cbd
00000190: 63dd f6bd 5840 cb3d b797 04be 45b1 41bd
000001a0: 189c 803d 7c1d cb3d 2b2e e53d 9717 f43d
000001b0: 2036 edba e38c 3ebc 7dd5 d6bd e777 a23c
000001c0: 3f75 5c3d 98ed 963d 6b15 aebd 0981 8abc
000001d0: e153 013d c724 493d 7bc7 edbc 1b07 ce3d
000001e0: 4ccb 60bd dddb babd 5006 73ba abca dcbd
000001f0: d719 843d ad9c f43d c23c 0b3c eb6a fb3d
00000200: 70f1 183d c24d b3bd eb7f 0e3e 6af3 f63d
00000210: 2815 62bd 1f3a 56bd f5dc edbd f9dc a1bc
00000220: 4236 793e 43da 333d b6e6 273d 728f 98bd
00000230: 5d99 9b3d 638a a13c 4beb a7bd aa26 35be
00000240: 805c 32bd aa13 19be 529e 04be 9363 a13d
00000250: 5764 95bd 8860 95bd 740a 213e 29b8 3a3d
00000260: afc9 b23d 475d f1bb 669d 0abe ce45 20bc
00000270: af23 babb 1f45 443e 776c dfbd 5ea7 9dbd
00000280: 108c f2bc b029 523d 7413 e7bc 7259 a03d
00000290: 5d06 82bd 2935 ae3d fa71 553d efe1 1e3e
000002a0: 501b 0b3c 690d 08bd 851f 8fbd 0698 4e3e
000002b0: be5b 183d 4037 28bd 9a46 b73c 4f50 67bc
000002c0: 6c33 cdbd 039c 0fbd f8b9 b23d 9d20 a6bd
000002d0: 5eef 953c cbdf ad3d ab61 60bd 9545 3abe
000002e0: 1810 84bb ea21 e9bd 5e2b 493d 4c5a 14be
000002f0: af4d 883c 7dc2 203c b271 ca3c bfec 093d
00000300: 56ea f03d a601 113e e8de 8e3d 8861 fb3c
00000310: 868c f4bd 5e78 ce3c 1650 dbbd a39f 16bd
00000320: db65 403d 444f a63d 2391 9bbd 1f06 b2bd
00000330: 2734 aa3d 375d e73d d7bc 873d d60d 733d
00000340: 0f9d 21bd fd81 c63b e5fd b1bd 9277 4dbd
00000350: 1fb1 633d f2f0 e53d 9e5e c5bd da84 77bc
00000360: 0ed6 a53d 393e 27bd fbf1 ed3d f27a 64bd
00000370: 90f9 7ebd 8259 febc dcc5 793d addc bf3d
00000380: 8d4f c13c 99be 0f3e fe3b 853d 7381 73bd
00000390: e2af 20bd 3818 ab3d 71a4 5a3c c703 f9bc
000003a0: 81de 933d bb78 78be e67d b93d da5c d13d
000003b0: 5b34 d13c d215 be3b f67b 8e3d c52f 8b3d
000003c0: d3b0 acbd 938f 223d ce61 5e3d c9b5 19be
000003d0: 2fc8 97bd 0583 c73d 1147 efbd d276 b5bd
000003e0: ff66 043e 24e5 dc3d ddae 7abd e7c9 fb3d
000003f0: 9c70 d9bd e709 943d eb64 0c3d 47ea 92bd
-0.037292477 -0.06428308 0.06395283 -0.042270813 0.073244065 0.0366542 0.0971591 0.11102319
-0.013590848 -0.025062008 -0.008325624 -0.03814609 -0.054186452 0.057710048 0.074482374 0.058753088
0.09807552 0.09391586 -0.009819322 0.047481008 0.06231523 0.12521894 -0.05162163 0.0047244164
-0.03583153 0.004265081 -0.17756118 0.109132595 -0.04717256 -0.06539871 0.10635916 0.060992423
0.053461906 0.115401536 0.03920746 -0.036042284 -0.018124428 -0.021771334 0.07150885 0.04857009
-0.061307505 0.14904742 -0.009908876 -0.046773527 -0.066792846 -0.013651651 -0.0018359737 -0.09052285
-0.06320151 -0.07604439 -0.14255443 -0.0889225 0.07247483 -0.021355217 -0.022156106 0.014494994
0.19994761 0.112261444 0.06575037 -0.066185825 -0.07698203 0.021244626 -0.031118467 0.18937717
0.005762167 0.0131131895 -0.09647676 0.00768054 -0.031914797 0.0030858477 0.025696723 0.009286028
0.10917495 0.085847065 0.0556762 -0.0047882916 0.059639372 0.08881237 0.0051032794 0.11174287
-0.08144436 -0.06304892 -0.16612539 0.006229685 0.09413731 -0.06534751 0.010051717 0.06136098
0.045483552 0.12923153 -0.11021305 0.1093282 0.0031647047 0.1137551 0.005687104 0.09399334
0.007875217 -0.11525312 0.16853215 -0.04604029 -0.12053945 0.09924382 -0.129485 -0.047288198
0.062797725 0.09917733 0.111904465 0.11918562 -0.0018097796 -0.01163027 -0.104899384 0.019832565
0.053822752 0.07369536 -0.08500179 -0.016907232 0.031574134 0.04910734 -0.029025784 0.10059949
-0.05488138 -0.09123967 -0.0009270655 -0.10780843 0.06450241 0.11943946 0.0084983725 0.12276252
0.037339628 -0.087550655 0.13915984 0.12058146 -0.055195957 -0.052301522 -0.1161441 -0.019758688
0.24337104 0.043909322 0.040991507 -0.07449235 0.07597611 0.019719308 -0.081991754 -0.1769053
-0.043545246 -0.14948907 -0.1295102 0.078803204 -0.07294529 -0.072938025 0.15726644 0.045585785
0.08729874 -0.007365856 -0.13536605 -0.009782268 -0.0056805233 0.19166993 -0.1090936 -0.076979384
-0.029607803 0.051309288 -0.028207518 0.0782956 -0.0634887 0.08506233 0.05211065 0.15515874
0.0084903985 -0.033215914 -0.06988434 0.2017518 0.037196867 -0.041068316 0.022372533 -0.014118268
-0.100195736 -0.035060894 0.08726877 -0.08111689 0.018302616 0.08489951 -0.054780643 -0.18190606
-0.004030239 -0.11383422 0.049113624 -0.1448757 0.016638605 0.009811995 0.024712417 0.033673044
0.11763446 0.14160785 0.0697611 0.030686155 -0.11940865 0.02520388 -0.107086346 -0.036773335
0.046972137 0.081205875 -0.07596042 -0.08692574 0.083107285 0.11297076 0.06627815 0.059339367
-0.039456423 0.0060579763 -0.08691005 -0.05016286 0.055588838 0.11227597 -0.096371874 -0.015107358
0.08097468 -0.040830825 0.1161842 -0.055781312 -0.06224972 -0.03104854 0.06097971 0.093682624
0.023597503 0.14037551 0.06505583 -0.059449624 -0.039230235 0.08354229 0.01334487 -0.030397309
0.072201736 -0.24264805 0.09057216 0.10222788 0.02553766 0.005800941 0.069572374 0.06796221
-0.08432164 0.039687704 0.054292493 -0.15010752 -0.07411229 0.09741787 -0.11683477 -0.08860554
0.12929915 0.107858926 -0.06120192 0.12294369 -0.10617182 0.07228451 0.03427593 -0.07173591

bias f4 [100]
00000000: 08d2 7ebd 03a3 7d3d b17a 63bd 5285 823c
00000010: 4598 8dbd 031d b33d 3a4c c6bd 6cf6 313d
00000020: d7bb ebbc 3875 fe3b 7e65 ac3c f3eb 993d
00000030: 3892 9a39 1861 f73c 73a3 423d b87f 40bd
00000040: e5c3 3ebd 4352 123c 0527 bb3d 4ebf 80bc
00000050: 196e f63b 5aef acbc fc81 bfbd fcfc 023a
00000060: 4c6c 463d 43f2 ad3d 4f94 5dbd 9473 cb3d
00000070: 40e7 12bd a1d2 f83d 4f09 403d 3881 e23d
00000080: fce7 543d 5f38 853c f450 1e3d a215 d43c
00000090: 9020 523d cd8d 613d 8815 64bd edc0 813d
000000a0: 6c01 6a3c a1bc 5abd ee59 053b e175 9bbd
000000b0: d3a6 c73d b281 733c 4050 a63d 39cb 20bc
000000c0: 2c8d 8e3d e123 e63d 5355 f43c 7e41 a4bb
000000d0: ad68 dabd 6b11 30bd cd8e c83d 0de5 29bd
000000e0: 065b 9dbd 3f29 d83d 820e 2d3d d9a0 163c
000000f0: 2bce 6ebd f3c2 4b3c 34a9 c2bc 22f4 2e3d
00000100: 5e55 bb3c b059 32bc db88 9abd 387d ce3c
00000110: 19c1 14bd fc78 9cbd 3988 903d 1a18 7abd
00000120: 5a79 66bd 5013 5f3d 091d a2bd 167f af3d
00000130: 660f da3d 4e12 e8bc ca36 883c f72b 623d
00000140: 2291 b13d c244 4fbd 4bd2 523d f0be 9a3d
00000150: bcd9 47bc 8695 18bc ed45 b93c de2b 5ebd
00000160: f2f0 9c3c f29f d33c 1d79 d0bc 38f3 d33b
00000170: 3974 2c3d b7e6 cc3d 7ea1 00bd 2f0d b93d
00000180: 0b5e 293d b1a2 45bd d96a 483d d379 aebd
-0.06221202 0.06192304 -0.05553693 0.015932713 -0.06913809 0.08745768 -0.09682508 0.043447897
-0.028776092 0.0077654384 0.021044489 0.07515707 0.0002948211 0.030197665 0.04751916 -0.046996802
-0.04657354 0.008930746 0.09138302 -0.015716221 0.007520449 -0.021110225 -0.093509644 0.0004996804
0.048443124 0.084934734 -0.054096516 0.09934154 -0.03586507 0.12149549 0.046883877 0.11059803
0.05197905 0.016262231 0.03865142 0.025889222 0.051300585 0.055066872 -0.055684596 0.06335626
0.014282566 -0.053402547 0.0020347792 -0.07590843 0.09748616 0.014862465 0.08120775 -0.009814077
0.0696052 0.11237312 0.029825842 -0.00501269 -0.106644966 -0.04298536 0.09792862 -0.041478205
-0.07683377 0.10554742 0.042250164 0.0091936225 -0.058302086 0.012436616 -0.023762323 0.042713292
0.022867855 -0.010885641 -0.07545634 0.025206193 -0.036316965 -0.076402634 0.070572324 -0.06105814
-0.056268074 0.054461777 -0.07915694 0.085691616 0.10647468 -0.02832904 0.016627688 0.05521771
0.0867026 -0.050602682 0.051470082 0.0755595 -0.012197908 -0.009312993 0.022616351 -0.054241054
0.01915786 0.025833104 -0.025448376 0.006468203 0.042103026 0.10004943 -0.03140401 0.09035718
0.041349452 -0.048250858 0.048930023 -0.0851933

weight f4 [100, 100]
00000000: 6c6c 5bbd 15a1 f33d fe38 3c3d b597 5d3d
00000010: 8501 98bd 7a31 cb3d 8cd5 84bd 9aec 8abd
00000020: 3555 9cbd 5bbd bebd 083a df3d fda1 733b
00000030: dcba b03b 1c97 633d c415 273c 913b 773d
00000040: 67fa 8fbd 760d 94bd 1231 a6bd d3e7 5a3d
00000050: 408a 8cbc 634b b4bd 3ff6 743d c2af 06be
00000060: 6f6a 7cbd eb06 2e3d db4e 86bd 22fa cabd
00000070: 940c 063e acd1 253e e644 92bc 82e3 903d
00000080: 2594 cdbd 40a4 003d acba acbc cf85 db3d
00000090: 2d46 903d c921 d9bd 8a7d a53b 8413 e23c
000000a0: b827 88bd fb19 febd 0f33 44bd 3027 27bd
000000b0: bf8f efbb 7a23 ba3d 2208 fcbd 8eac e53d
000000c0: 3476 e03d 3186 b83b 0a5f bd3d 14bf 823d
000000d0: 7899 8dbd 9ba2 463d 00e9 c43d b9bc c5bd
000000e0: 9b13 e1bc 8cfb dbbc a6c7 10bd 7de2 833c
000000f0: 70d8 643d 8d0f 093d 2e62 2f3d 6192 84bd
00000100: 8ab5 0c3d f0fc 433d 2ee2 ee3d 1d24 dd3d
00000110: 027d 32bc 62d8 94bd a02b 01bd 5ffb a7bd
00000120: f951 aa3c f3ac b438 79a2 acbd 6814 a03d
00000130: df28 5b3d 2f9d c63d 0560 0abd 26a1 eb3d
00000140: 533e a93d cefa 0dbc 3ed6 dd3c dc25 6ebd
00000150: 99ea 713d a749 e63d b3f2 4e3d a55e f8bb
00000160: bfa3 31bd f819 083e 4067 95bc 750a cc3d
00000170: 8266 c23d f7f7 41bd 32c9 a53d 8846 413d
00000180: afee bc3d 62bb 9d3d 1439 963d aefb b73c
00000190: 020b 963d d2ac c4bd ab26 03bd 8d8b b33d
000001a0: 9a24 c5bc 7e58 fa3d 7b01 003d 1bd9 efbc
000001b0: 4550 b63d 7296 153d 4626 5f3d e208 7fbc
000001c0: 2ea1 963d 35f2 42bd f245 583d c491 233d
000001d0: e65a 2e3d ee1c a8bc 7754 53bb f42a ebbc
000001e0: 74bd 753d 24a9 5bbd dcfc 2cbd 3362 953a
000001f0: 7006 1f3d 3773 bebd b008 d73b f144 ca3d
00000200: 5d11 863c a94d 7f3c 8bb4 5b3b f346 2a3d
00000210: 47d4 24bd 922a 41bd 1937 7f3b c60a 8d3d
00000220: 77da 133d f6ca 4a3c fa2e 2ebc 6967 34bc
00000230: ed86 82bd 5651 8bbd 3e4f 373d 84a0 dc3c
00000240: 53bd af3d ba5a 0ebd be9a db3c a021 153d
00000250: e8a7 e53d 4ec7 413d df4e 16bd c0c6 0cbd
00000260: 94ce e1bd 1884 53bd fc30 c03d e72b 79bd
00000270: acde a9bd e16e 593d 787e e33d a869 bb3c
00000280: 1782 dbbb e60b b0bd de70 efbc feea d73d
00000290: 1267 a1bd 4a1e 36bd d76e b23d bb7a 97bc
000002a0: b515 053d 6cf9 99bc 359f 773d b938 c93c
000002b0: a08c 783d e757 323d 0fd1 c03c 3c30 a23d
000002c0: cb4f bf3c b956 273d 9c04 ad3c 3fd3 b3bd
000002d0: 9a21 b7bc 834e bcbd 7008 223c 5204 403d
000002e0: 28dd ccbc 3333 7c3d a508 903c 9a6c aebc
000002f0: 5735 1bbd ef04 6a3b 617e 1abd 2210 b43d
00000300: f694 d53d 7c3a 853d 4148 ed3d 8b20 6e3d
00000310: a79f a13d 10ff 2dbc 468b b83d daa6 18bd
00000320: f162 65bc 7bfd a1bd 9c95 d53b 06c2 fabb
00000330: 6d5f a23d c198 353c 3f3d 68bd 8620 093d
00000340: 94fc 263d 4721 3f3d 0f38 743d 8dba ef3d
00000350: 63f8 bfb9 94c9 bc3d f7d9 7a3d 257b e9bb
00000360: d5b3 75bd 4ebf 923c ae11 37bc 498b d2bb
00000370: d2e0 8bbd dea3 6d3d 9ad6 493d 9d0d b8bd
00000380: eb61 a4bd 3db6 423d 2563 8c3c 57e2 3cbd
00000390: cca4 7ebc 02f1 143d b7cb 983d bf76 c33d
000003a0: ac5a aabd 0e4f 733d b9e1 9d3d c932 c03d
000003b0: 1266 11bc 4cd6 a83d 79e9 133d 280d 17bd
000003c0: 9bd1 7fbc f43b 743c 3077 053e 522d ee3c
000003d0: 1995 973c 6261 9f3d 43a9 f0bc e6ea 583d
000003e0: b4eb b3bb e1bd 6abc bff8 223d bbd3 8fb8
000003f0: 5f43 7c3c b8cb 2dbd ccb8 45bd 9390 d3bc
-0.053570196 0.11895958 0.04595279 0.054099757 -0.07422165 0.09921546 -0.06486043 -0.067834094
-0.076334395 -0.093134604 0.108997405 0.003717541 0.005393369 0.05556403 0.01019806 0.06035954
-0.07030182 -0.0722913 -0.08114828 0.05344374 -0.017155766 -0.088034414 0.05980515 -0.13152984
-0.06162494 0.042487066 -0.06558009 -0.0991099 0.13090736 0.16193265 -0.017855119 0.07074644
-0.10038022 0.03140664 -0.021085106 0.10718881 0.07044635 -0.10602147 0.005050366 0.027597196
-0.06648201 -0.12407299 -0.047900256 -0.040808856 -0.007310837 0.09088798 -0.12306239 0.11214553
0.109600455 0.0056312312 0.09246643 0.063841015 -0.069140375 0.048494916 0.09614754 -0.096551366
-0.027475169 -0.026853345 -0.03534665 0.016099209 0.055870473 0.033462096 0.04281824 -0.06473232
0.034352817 0.047848642 0.11664234 0.10797904 -0.010894062 -0.07267834 -0.031535745 -0.08202242
0.02079104 8.615283e-05 -0.08429427 0.07816392 0.053505775 0.09697949 -0.033782978 0.11505346
0.082638405 -0.0086657535 0.027079698 -0.058141574 0.05906162 0.11244517 0.050524425 -0.007579642
-0.04336905 0.13291156 -0.01823771 0.09962932 0.09492208 -0.04735562 0.080950156 0.047186404
0.09225213 0.07701756 0.073351055 0.022458877 0.07326318 -0.09603275 -0.0320193 0.087668516
-0.024065305 0.1222391 0.031251412 -0.029278329 0.08902029 0.03652043 0.05447986 -0.015566083
0.07354961 -0.047594268 0.05280108 0.039933935 0.042567156 -0.020521607 -0.003224639 -0.028707005
0.05999513 -0.053628102 -0.042233333 0.0011397063 0.0388245 -0.09299319 0.006562315 0.09876431
0.016365701 0.0155824805 0.003352436 0.04157157 -0.040241506 -0.04715974 0.0038942753 0.068868205
0.036097016 0.012377491 -0.010631317 -0.011010983 -0.06373391 -0.06802623 0.044753306 0.026932009
0.085810326 -0.034754492 0.026807185 0.03640902 0.11213666 0.047309212 -0.03669631 -0.03436923
-0.1102573 -0.051639646 0.09384343 -0.060832884 -0.082944244 0.053084258 0.111081064 0.02287753
-0.0066988575 -0.085960194 -0.029228624 0.10542868 -0.07880987 -0.04446248 0.08712547 -0.01849114
0.032491405 -0.018795691 0.060454566 0.02456318 0.060680985 0.04354086 0.023537187 0.07919356
0.023353478 0.04085419 0.021120362 -0.08780526 -0.02235489 -0.091946624 0.009889707 0.04687912
-0.0250078 0.061572265 0.017582247 -0.02129202 -0.037892666 0.0035708507 -0.03771818 0.087921396
0.10428803 0.06505296 0.11586047 0.058136504 0.078917794 -0.010619894 0.09010939 -0.037268497
-0.01400064 -0.07909676 0.006518079 -0.007652524 0.07928357 0.011083783 -0.056699034 0.033478282
0.04076822 0.046662595 0.059623774 0.117055036 -0.0003661542 0.092181355 0.061243024 -0.0071252757
-0.059985954 0.017913487 -0.011173649 -0.0064252955 -0.068299904 0.058017604 0.049276926 -0.089869715
-0.08026489 0.047537077 0.01713712 -0.046114292 -0.01554222 0.036362655 0.074607305 0.095441334
-0.083180755 0.059401564 0.07709069 0.093846865 -0.008874433 0.08243999 0.03611133 -0.03687778
-0.015613939 0.014906872 0.13033748 0.029074345 0.018503712 0.07782246 -0.029377585 0.05295839
-0.0054907445 -0.014327497 0.039788004 -6.858209e-05 0.015396922 -0.04243061 -0.04827194 -0.025825774

bias f4 [100]
00000000: 8aca be3d 75c6 acbc ff9b d5bc 7216 9b3d
00000010: ab3a 553d 5fc3 be3d ca88 a1bd fac8 adbd
00000020: 968d d6bc 23c8 89bd 7fb3 a83d 907c 983c
00000030: 1aac 0e3d d2ed 943d 7a42 acbd 90e9 43bd
00000040: 16db 23bc cb66 743b d162 8abc 1a07 40bc
00000050: 0718 53bc ebfd 1a3d fd6a a23d 0844 aabb
00000060: 33c2 2b39 4c9e af3d f895 c5bd c2ef b13d
00000070: c7d2 4c3d e30f 343d 5900 36bd 0396 a5bd
00000080: 675b b1bd a09e c13c e339 783d ce88 cfbd
00000090: 60e5 023d 1d64 82bc 5e70 94bd 2f82 9ebd
000000a0: 1322 aebd 3e96 c5bd 0922 343d 2cba 013d
000000b0: d474 1f3d 32b0 bdbd 5d38 06bd d8cd 923c
000000c0: fa23 65bd e169 4a3d 35fe 883d 6514 503b
000000d0: 7a10 4d3c d4ec 543d 2226 88bd fd2b 263c
000000e0: 4384 3d3d b254 ba3d ca6d b2bd 6c11 ad3d
000000f0: 2fbe c43d 5afc 9b3d 6517 463d 16e6 0dbd
00000100: 66de 06bd 8556 31bd ae28 49bd ae54 a8bd
00000110: 4106 b93d 98bd ae3c d19c b63d 731f c83d
00000120: 2500 e73c 6805 a93d 2849 9c3d 3e1e 1a3c
00000130: 5890 abbc e51e 993c 6f3e ae3d 6415 88bd
00000140: 1847 173d 7313 bebd 14ac e23d 7c55 12bd
00000150: f10f 68bd fa1b 9dbc b5fa 8a3d 336d 9f3d
00000160: 37ed 98bd e902 013d 2b70 cc3d 9266 8c3d
00000170: 4023 6e3d 87e4 893c 3365 693d 575f 993d
00000180: 1428 cfba 20e8 82bc 5cc0 a4bd 289f 41bd
0.09315975 -0.021090725 -0.026075361 0.075726405 0.052057903 0.09314608 -0.078874186 -0.08485599
-0.02619056 -0.06727626 0.08237361 0.018614084 0.034832098 0.07271923 -0.08411117 -0.047830164
-0.010000965 0.0037292715 -0.016892822 -0.011720443 -0.0128841465 0.03783981 0.07930563 -0.0051960982
0.00016380176 0.085751146 -0.09647745 0.08688308 0.0500057 0.043960463 -0.044433925 -0.08085253
-0.08660012 0.023635209 0.06060208 -0.10133515 0.03195703 -0.015916878 -0.07247995 -0.07739674
-0.08502593 -0.09647797 0.04397777 0.031671688 0.038929775 -0.09262122 -0.032768596 0.01792042
-0.055942513 0.04941738 0.06689111 0.0031750437 0.012516135 0.05198367 -0.06647898 0.010142324
0.046268713 0.090981856 -0.08712347 0.084505886 0.09606587 0.076164916 0.048362155 -0.034643255
-0.03292694 -0.043295402 -0.04911106 -0.08219276 0.09034396 0.02133064 0.08916629 0.097716235
0.028198311 0.08252984 0.07631141 0.009406624 -0.020942852 0.01869149 0.08508002 -0.06644705
0.036933035 -0.092810534 0.110679775 -0.035726056 -0.056655828 -0.01917838 0.067861 0.077845
-0.0746712 0.031496916 0.09982332 0.06855501 0.058139086 0.016832603 0.056981277 0.07488888
-0.0015804791 -0.015979826 -0.08044502 -0.047270924
